MNIST_Recognition/model.pth (torch, 90159 bytes, 8 tensors)

conv1.weight f4 [10, 1, 5, 5]
00000000: c200 1f3e 8316 683e 4aa9 633d ff15 903e
00000010: 68f5 f93d ed69 1dbd 9b43 813d 01c6 c83e
00000020: 18bc 0b3e ee7c c23d ff27 843e 256b f63e
00000030: 7a20 ad3e a543 34bd 05b7 eabd 7840 533e
00000040: 25ca 963e 3b1f 3fbe 5816 21be f008 ccbe
00000050: 2d88 bc3d a1f1 ce3d 7397 b4be 0ba0 b8be
00000060: 3672 a2be 7d03 12be 4c6e 86be 5720 98be
00000070: 2f18 ccbe 316c 9fbe 5096 903e 7ef2 6c3e
00000080: cf69 30bd 5f44 03bb 83e4 4a3c db73 a03d
00000090: 97cf 963d ef49 713e bbb0 ad3e c4b6 193e
000000a0: eb99 1dbd ccc6 993c a084 583e 1215 fc3d
000000b0: 8294 0f3e d9fd 44be b011 0f3e 17c4 adbd
000000c0: 85af 76bd c437 a8bc c47a 30bc 7c94 4b3c
000000d0: 6150 f4bd faaf abbd 8d67 98bd 0171 533d
000000e0: fb5c fabd 81b5 1c3d ee57 bf3c 25e0 12be
000000f0: b044 1c3e d1b6 ecbd d173 4fbe c738 61be
00000100: 0a53 af3d 4fb4 c83c 2f8d 763e 0d74 31be
00000110: 66e7 b8bd bcb6 56be 9466 873e b2de 923d
00000120: ea9d 803e 92e8 c63d bccb 47be 6b94 463e
00000130: 4ef0 5bbc 9939 2f3e cde2 21bc 0062 d63d
00000140: d226 713e d8f5 9a3e 6bad 803e 8c85 ba3e
00000150: 155f 2d3e fdf5 9a3d 7119 0fbe e597 553e
00000160: 99fc 6c3e 527c 9c3e 849d ce3d 5b0c 11be
00000170: 2a5b ebbc 0336 203e abcc ba3e d3e2 2bbe
00000180: b979 aabe df4c 9ebd af17 863b 03d7 743e
00000190: 1154 a13d 69c9 9ebe 1049 8dbe 3253 da3d
000001a0: f8eb 5a3e 606e 96bd b488 8b3d c06d 583d
000001b0: 0da4 a43e 0840 ab3d 0599 8cbc 9b1f a33e
000001c0: 937a 273e 590a 653e c451 593e 08c1 3c3e
000001d0: f97e 1fbe 88de 66bd 7a03 6ebe e5b5 b93d
000001e0: e556 11be 9950 04be 05f0 82be b795 f4bd
000001f0: 7884 c1bb 0433 7a3e 2b45 ca3e fc1c 733e
00000200: 471e e63d 8062 b03e 9720 a73d 601f 383e
00000210: 12a2 dd3e 01ef 413e d7a9 603e c142 b6be
00000220: 8945 553d 12f7 5d3d 9518 533e a073 bf3c
00000230: 70b8 54be 34a1 b8be 8cf1 aabe 0010 afbe
00000240: 9fec 9abe b4e2 61be 8fcf 93be 1474 84be
00000250: 5a86 8abe a494 96bc 58fd 913e f1d7 97bd
00000260: 54b3 4abe 82cc e03c 47ff 10be 7687 543e
00000270: fc7c d0bd bbf4 b33d 0878 8c3d a327 443e
00000280: 4302 c33d b692 23be 26f8 83be 4eb6 a2bd
00000290: 7e90 92bd 6e89 053e eac1 9f3d 5ee4 1bbe
000002a0: 525a 9cbd 88b9 87bd 56da 733e 2c93 8dbd
000002b0: a6ce 053e f9e1 2ebe 04ff e73d dfdf 3a3e
000002c0: b103 023c f3bf 78be 25c9 b3be abb6 dc3d
000002d0: 259c 5f3e 393f fa3b 0f96 9a3e 08ab bb3d
000002e0: 0c29 1d3d 0679 58bd 6059 333e 41a6 a83e
000002f0: c6be 3d3e 5e4f 17bd 27d8 fcbc 56e2 1e3d
00000300: f402 20be efba 273e 810a 313d 68fb 98be
00000310: d792 5abe 2d29 4bbe 1ca7 a1bd 0fa0 d1bd
00000320: 1756 7ebe 35e2 8bbe 8be2 91be 6947 153e
00000330: 35e6 433e 7600 67be 226a 70be 169d 303e
00000340: 1456 c83e 26d6 703e 5839 f7bd 3cbd 48bd
00000350: 3d30 a33e ce59 003f baf2 e03c c207 e9bd
00000360: b927 873d eebf 733e 2348 a63e 734e 013e
00000370: b6f9 f43d 5917 1a3e f1e8 903e 85fc 2e3e
00000380: 1020 1b3e 84be 72bd b558 613d 2cbe fdbd
00000390: 9f4d a3bb 87ec a93d be58 78be 82e3 38be
000003a0: 5fcf 82bd ffd9 dd3d 6f31 61bd b833 33be
000003b0: 6305 84be 0d18 51be 3990 4bbe 7886 5d3c
000003c0: a578 543e c6c3 783d 6e33 61be fc62 a6bd
000003d0: b506 48be 3e15 5e3d 1ffa 8ebd 738e 60be
000003e0: c5df 0ebe c863 963d
0.15527633 0.22664838 0.05558137 0.28141782 0.12205011 -0.038431097 0.06311723 0.39213565
0.13645971 0.09496485 0.25811765 0.4812862 0.3381384 -0.044009823 -0.114606895 0.20630062
0.294511 -0.18664257 -0.1573118 -0.3985057 0.09205661 0.10104681 -0.35271797 -0.36059603
-0.3172776 -0.14259143 -0.26256025 -0.29712173 -0.398622 -0.3113723 0.2823968 0.23139378
-0.043069657 -0.0020029766 0.012383583 0.07834598 0.07363813 0.2356336 0.33923897 0.15011126
-0.038476866 0.018771552 0.21144342 0.12308706 0.14021495 -0.1923746 0.13971591 -0.08484667
-0.060225982 -0.020534404 -0.010771457 0.012425538 -0.119293936 -0.08383174 -0.07441626 0.05162144
-0.12224766 0.038259033 0.023357358 -0.14343317 0.15260577 -0.11558307 -0.20259024 -0.21994315
0.0856076 0.02450004 0.24077295 -0.17329426 -0.09028511 -0.20968145 0.26445448 0.07171382
0.2512048 0.09712328 -0.19511312 0.19392554 -0.013423992 0.17111816 -0.009880734 0.10467911
0.23549965 0.3026569 0.25132307 0.36430013 0.16930802 0.0756645 -0.13974549 0.20858724
0.23143233 0.305636 0.100886375 -0.1416487 -0.028729994 0.15645604 0.36484274 -0.16785745
-0.33295992 -0.07729506 0.004092179 0.23910145 0.078773625 -0.3101304 -0.27594805 0.106603995
0.21379077 -0.07345271 0.068131834 0.05283904 0.3215641 0.08361822 -0.01716281 0.3186005
0.16355352 0.22367229 0.21222597 0.1843301 -0.1557578 -0.056364566 -0.23243514 0.09067897
-0.14193304 -0.1292137 -0.25573745 -0.11942618 -0.005905684 0.24433523 0.39505896 0.23741525
0.11236244 0.3445015 0.08160513 0.17980719 0.43287712 0.18938829 0.21939789 -0.35597804
0.052068267 0.054190703 0.20614846 0.023370564 -0.20773482 -0.36060488 -0.3338741 -0.34191895
-0.30258653 -0.22059137 -0.28869292 -0.2586981 -0.27055627 -0.018381424 0.28513598 -0.074142344
-0.19794971 0.027441267 -0.1415988 0.20754799 -0.10180089 0.08786913 0.06858832 0.19155745
0.09521916 -0.15973935 -0.2577526 -0.07944928 -0.07156466 0.13040707 0.07800658 -0.15223834
-0.07634415 -0.06627184 0.23813757 -0.069128364 0.13067111 -0.17078389 0.11327937 0.18249463
0.00793545 -0.24291973 -0.351144 0.10777029 0.21836908 0.0076369313 0.3019261 0.09163481
0.038369223 -0.052849792 0.17514563 0.32939342 0.18529806 -0.036940925 -0.030864788 0.03879007
-0.15626127 0.16379903 0.043222908 -0.29879308 -0.21345077 -0.19839926 -0.07893202 -0.10235607
-0.24837528 -0.2732102 -0.2849315 0.14578022 0.19130786 -0.2255877 -0.23477986 0.17247424
0.39128172 0.23519191 -0.12071484 -0.049008593 0.3187274 0.5013703 0.027459491 -0.11378433
0.06599373 0.23803684 0.3247691 0.12627582 0.11961691 0.15047969 0.2830272 0.17088516
0.1514895 -0.05926372 0.05501624 -0.12389788 -0.0049836184 0.08297067 -0.24252602 -0.18055537
-0.06387209 0.10832595 -0.054978784 -0.17500198 -0.2578536 -0.20419331 -0.19879235 0.013520829
0.20749147 0.06073358 -0.21992275 -0.081243485 -0.19533809 0.054219477 -0.069813006 -0.2192934
-0.13952549 0.073432505

conv1.bias f4 [10]
00000000: 6b66 6d3c 934c 183d a47f 173e 5d92 793e
00000010: c67e 223e 67b6 763d bf77 fbbd 2c62 703c
00000020: e8d5 ed3d d07b fa3d
0.01448975 0.037182402 0.14794785 0.2437224 0.15868673 0.060232546 -0.12278699 0.0146718435
0.11613065 0.122306466

conv2.weight f4 [20, 10, 5, 5]
00000000: 09ee 223d 362b be3d e1be d2bc bd75 e2bd
00000010: e03c ffbb e792 9c3d e2d9 ae3d db73 bc3d
00000020: a5df 34bd 8aed 4a3c e035 ae3c 3c7f f13d
00000030: 8f3e 753d e1af b1bc e425 1b3e bed3 b43c
00000040: cc7a 4b3d a14e 5bbb 5109 e3bc b207 053e
00000050: 6d0d 1c3d 4ea9 8fbd 426e e4bd 6607 72bc
00000060: 324f cb3d 9448 6ebd de01 f5bc 441f 10bd
00000070: ce02 9abd cf53 4dbb 6769 bdba b901 a7ba
00000080: 1b54 6cbd 40e7 7fbd b020 afbc a5ec e63c
00000090: 360c a6ba 35cc b73b 9001 28bd 8551 ec3c
000000a0: bf3c 2fbd 8f4e 1dbd a461 51bb 5f1f 89bd
000000b0: 0b35 c1bc f3c4 47bd 1543 7f3c 3587 2abd
000000c0: fc38 cfbd b3c9 37bd 0d1c 50bc 55dd 2a3d
000000d0: 4eb3 6cbc 386d ecbc 23ad d1bb a35e 6bbc
000000e0: e994 a13d a341 dbba a5ad 2a3d 9f51 7bbd
000000f0: c7e8 6b3d 4beb 09bd b8af 533d 2dd5 75bc
00000100: 4b23 87bd c7f4 9f3c a972 88bd d44d 493b
00000110: 443a 2f3c df96 a63b 3425 e5bb d78d 3c3c
00000120: b0ff dfbb 007e 4ebd 76ce 43bd d47c 953d
00000130: c8a7 97ba ccb8 3dbd 42a7 17be a083 91bd
00000140: 46c8 353c 99a6 083d 94bb 05be 21ad 95bd
00000150: 7f19 e2bb ef95 32bc 5af6 9fbb cd98 d3bd
00000160: fdd2 4ebd fc4b 47bc 4c22 a23c dccf 43bd
00000170: 455a 6cbd c48d aabc f101 dabd 312d 92ba
00000180: 8dee 693c 077f 053c 2088 52bc e2ae 5fbd
00000190: 1f87 e4bb 6819 93bd e490 b7bd 3cf9 59bd
000001a0: b27c 63bd 3c24 04bd bdd5 b53b a406 8abd
000001b0: a52f b0bd 9762 f4bc 6391 48bd d79e ccbc
000001c0: 494a 10be 8891 a4bd 0d68 38bd 03ae a9bc
000001d0: 984c c3b9 2ea4 8dbd fdf5 7b3d 9bad 513d
000001e0: 5f80 0ebd b0fa 503b 09d2 02bd 23d8 9e3d
000001f0: cfa2 d2bc 6478 603d b340 fe3c 5243 b5bd
00000200: 4c4e 0cbd 4204 6fbd 20bb 193d de26 5cbd
00000210: 73ff 27bc 7827 00be a3e9 d7bd 8dbd a0bd
00000220: 92ac d8bc ecea e6bd 1ed1 debd 5be6 e0bd
00000230: aef6 82bc 6f14 c7bd cf30 f3bd 24eb 8fbd
00000240: cefe f7bd 8e0d 64bd 6f97 90bc a78d 44bd
00000250: 9b8a 0fbe 3a5b 45bd bdf8 8c3d da83 bb3c
00000260: 40a2 8abb 0348 57bc 21a8 98bd c1d5 05bd
00000270: 99f7 99bb 0c0b 473d 8d24 673d 2761 db3c
00000280: e51c 393d aecc 883d f24b 56bb 351c 153d
00000290: cd1f 5ebd dee8 0cba 8d23 40bc b87d 923d
000002a0: 2479 843d e096 dfbc ea07 a0bc aea8 6fbd
000002b0: 35da c03c b8d9 46bc dc19 e8bc e59f 3d3d
000002c0: 3f2e 74bd abd3 3b3b 217b 38bc 4127 1dbc
000002d0: 0ef0 a83c ea2b 60bd 7661 a33b 42c3 4a3c
000002e0: b517 43bd 800c 68bd 738f b5bb 787c 97bc
000002f0: 005e 4e3c 6005 a2bc 981d f1ba bad2 a4bd
00000300: 3d74 21bc 1981 84bd 0d6a 76bd 2188 aebd
00000310: 9062 4a3b 1658 8abd 5f30 56bd 26db 98bd
00000320: d0da 96bb b6b2 24bd 849b d3bd a321 cebd
00000330: 28ac dabc bec1 a23c c8fe 973d d64b ffbd
00000340: 7f11 a4bd 32dd 1b3e afba f83d 716e 723d
00000350: ecfd 31be a9b3 233d 16df 2c3e 9ddd 043e
00000360: 96db f5bc 9d85 e3bc 7b8e 0b3e 3629 983b
00000370: eee3 bab9 030d 8ebc 53f1 a4bc c1a9 f33d
00000380: 90ab a2bc b603 60bc b0d1 923d f636 a73d
00000390: 9d82 6d3d 915e 8a3d a6bb 073c e232 10bd
000003a0: 3a7c ba3c 44d0 463c ad87 6b3d cd22 ee3c
000003b0: 2ecb 8c3d ac0e 373d 7062 24bd 0f9c 3ebc
000003c0: edb3 643d c89f 073d cf9b 533d 1c5d 6dbd
000003d0: cf4a 9dbd 2139 433d ddfb 973d 2899 8cbc
000003e0: 2c7f 813c bb4d 51bd 4eee 383c cd88 313d
000003f0: 2569 1f3d 64d6 f43c d4ee 073e 799c 903d
0.03977779 0.092855856 -0.025725784 -0.11057613 -0.0077892393 0.07645207 0.085376516 0.09201785
-0.044158597 0.012385735 0.021265924 0.11791846 0.059874114 -0.02169031 0.15151173 0.022073623
0.049677655 -0.0033463615 -0.027714403 0.12991217 0.03809874 -0.07014714 -0.111538425 -0.014772272
0.09927215 -0.058174685 -0.029908117 -0.035186067 -0.07520066 -0.0031330471 -0.0014450968 -0.0012741602
-0.057697397 -0.062476397 -0.021377891 0.028189013 -0.0012668434 0.00560906 -0.041017115 0.028847465
-0.04278254 -0.038404997 -0.0031949067 -0.06695437 -0.023584863 -0.04877181 0.015579958 -0.04163285
-0.10118291 -0.04487009 -0.012702 0.041714985 -0.014447046 -0.028860673 -0.0063988133 -0.014365825
0.078897305 -0.0016727935 0.041669507 -0.061357137 0.05759504 -0.03367166 0.05168125 -0.015004438
-0.065985285 0.019525899 -0.06662495 0.0030716555 0.010695044 0.005083903 -0.0069929603 0.011508427
-0.0068359002 -0.05041313 -0.04780432 0.072992 -0.0011570388 -0.046318814 -0.14809898 -0.071051836
0.011095112 0.033362005 -0.13059837 -0.07308412 -0.006900012 -0.010900005 -0.0048816623 -0.10331879
-0.050494183 -0.012164112 0.019791745 -0.047805652 -0.057703275 -0.020819552 -0.106449015 -0.0011152384
0.014278066 0.008147961 -0.012849838 -0.05461014 -0.0069741155 -0.0718258 -0.089631826 -0.053216204
-0.05553884 -0.03226112 0.005549161 -0.06739548 -0.086028375 -0.029832168 -0.048966777 -0.024978084
-0.14090838 -0.080355704 -0.045021106 -0.020712858 -0.00037250365 -0.069160804 0.06151389 0.051190954
-0.034790393 0.0031887703 -0.031938586 0.077560686 -0.025712399 0.054802313 0.03103671 -0.08850731
-0.034254357 -0.05835367 0.037531972 -0.053748004 -0.010253775 -0.12515056 -0.105426095 -0.07848654
-0.026449475 -0.112752765 -0.1087973 -0.10981437 -0.015986767 -0.09720694 -0.11874544 -0.070272714
-0.12109147 -0.05567699 -0.017650334 -0.047986653 -0.14017718 -0.048182704 0.068833806 0.02289002
-0.0042307675 -0.0131397275 -0.07453943 -0.032674555 -0.0046987054 0.04859452 0.056431342 0.026779724
0.04519357 0.066796646 -0.0032699076 0.036403853 -0.054229546 -0.0005375276 -0.011727226 0.07152885
0.06468418 -0.027293622 -0.019535024 -0.058510475 0.02354155 -0.012136869 -0.028332643 0.046295065
-0.059614416 0.00286601 -0.011259825 -0.009591878 0.02062228 -0.05472938 0.0049859835 0.012375655
-0.04763003 -0.056652546 -0.005540782 -0.018491969 0.0125956535 -0.019777954 -0.001839566 -0.080480054
-0.0098543735 -0.06469936 -0.06015973 -0.08522058 0.0030881502 -0.06755082 -0.052292224 -0.07463674
-0.004603721 -0.040209495 -0.103323966 -0.100650094 -0.026693419 0.019867774 0.074216425 -0.124656364
-0.080111496 0.15221098 0.12144982 0.059187356 -0.1738202 0.03996626 0.16881976 0.12975164
-0.030011933 -0.027773673 0.1362857 0.0046435846 -0.00035646505 -0.017340189 -0.020134604 0.11897612
-0.019857198 -0.01367276 0.07168901 0.0816478 0.05798589 0.06756318 0.008284485 -0.035204776
0.022764314 0.012134615 0.057502437 0.029069329 0.06874691 0.044691727 -0.04013294 -0.011633887
0.055835653 0.033111364 0.051662263 -0.057950124 -0.07680284 0.047661904 0.07421086 -0.017162874
0.01580771 -0.05109952 0.011287285 0.043343354 0.038918633 0.029887386 0.132747 0.07061095

conv2.bias f4 [20]
00000000: 49ed 74bc fc04 eb3b 8fa3 903c 436f 713c
00000010: d821 49bc 1061 1ebc 7862 88bc 93c9 9dbd
00000020: e4fd 24bc ab77 873d 7a9d 7c3c f0a5 b9bc
00000030: c400 06bd 8856 f33b 1005 6d3d a327 b83c
00000040: fc15 063d d8bb 45bc e040 52bd 1e55 f6bb
-0.014949151 0.007172225 0.017656116 0.0147359995 -0.012276135 -0.009666696 -0.016648516 -0.07704463
-0.010070298 0.06614622 0.015418405 -0.022662133 -0.032715574 0.007426087 0.057866156 0.022479838
0.03273581 -0.012068711 -0.0513314 -0.007517471

fc1.weight f4 [50, 320]
00000000: 21ee 89bd cc26 f6bc 6286 c13c 57bd d63a
00000010: ead7 9e39 1dc8 50bc 8357 093d 7123 893c
00000020: 4336 3b3d 1173 2e3d 1957 ea3c 08d1 213d
00000030: bc5d ec3c 43c0 323d 362c 193d 2694 19bd
00000040: 9070 cabc 351e 623c 3954 1bbc 34de a3ba
00000050: 880d 5bbd 5368 ab3c 698e 9b3d 8812 5b3c
00000060: bf40 17bc f831 413c 8191 2c3d 27d0 60bd
00000070: 68c4 503d c720 a33d 44bd 32bd abf3 2abd
00000080: ce88 ee3c 67b2 843d ce73 9bba d781 633d
00000090: a037 a7bc 2765 a0bc d428 76bd fa56 09bd
000000a0: 228c 6dbd 74a9 2cbc 9f45 393d d0a1 1c3d
000000b0: 58f7 65bd 8b6c 0c3d dd3f 42bb afca 443d
000000c0: 4081 a33b 1d32 f63c 837e 37bd b702 e9bc
000000d0: 00a5 e0bc 0794 c7bc fdc0 423c 94b8 433d
000000e0: 14f5 fcba 9f91 d03c 0c94 513d bb4e 84bd
000000f0: 29dd dcbc 4e84 e13c 97ad 383d b18f 3c3b
00000100: a607 043d 9a44 0ebd 5e0c 9b3c 037f 9abc
00000110: b271 403d dbaa d03c 2f30 25bd f471 253d
00000120: 1a96 e4ba 099f bd3b 45ca 563d 97f5 a5bd
00000130: aa7f 143d bd6d e8bb 4f51 a83c 9263 693b
00000140: 0e44 cdba 9edb 4cbd 5683 b0bc 2c72 17bd
00000150: ddc1 74ba c3e0 673d 62d0 89bc ce3c babb
00000160: 1c65 0abc 28ca 823b 7619 8a3c 17c4 b43c
00000170: b244 1f3b 84b6 3d3d b4c7 443d 9239 0dbd
00000180: 0df4 563d 0b3c da3b 8836 883c abec 3b3d
00000190: 5b06 743d 9611 8cbc eb52 a23c 04e5 d7bc
000001a0: 48ed 443c b6ea babd 57ea 65bd af23 3b3d
000001b0: 0e9b 8abd db51 dabc dfd8 d8bc c5dc d63d
000001c0: e7cc 0e3d 123d b2b7 c33d 10bd dc83 8a3d
000001d0: 41b5 ddbd c095 403d 66d0 cdbd a3d9 7abd
000001e0: 7af1 87bd 7d3a 353d 5949 233d 3240 0e3d
000001f0: 6006 9c3c 2159 bd3d 0b94 babd 5f5f df3c
00000200: 5ddc 033d ea66 a9bb dd79 253d 6478 4b3d
00000210: 1c9c 323a f957 28bd 1a1b a7bd af82 0cbc
00000220: 0721 b13a dca9 bfbc 8760 46bc 6d61 a6bb
00000230: 5c2a 8ebc dae6 99bd 5746 80bc 925d c43d
00000240: 1c83 903c b7f4 ee3c 1705 913b b3a6 6dbc
00000250: 3e30 0abd c975 1dbc 7f55 253d 2428 47bd
00000260: 27fd e43c 3078 863c ca5f b63d f676 313d
00000270: 3e5f debb 7de2 b3bc 11d3 07bd cf6e adbd
00000280: ca53 bb3c 7dbe 593c a455 d13c 82f8 d2bc
00000290: fbc5 5e3d e3f7 e13b 34af 933c b273 723d
000002a0: 3afe e2b9 4c38 5abd 9c6b aabd 70d3 9c3c
000002b0: e5e5 bebb c1a0 07bc ccb0 81bd 7e41 453c
000002c0: 50be 64bd f9ca 0e3d 89ab cd3c 0111 913d
000002d0: 17fc 39bd 19e3 d23c 6786 d43c 361a 5c3d
000002e0: 0c1e aa3d 7d95 05bd cb70 733c 6603 c5bc
000002f0: 36f3 2b3c 0437 ebbc 9840 14bd 3664 b7bc
00000300: f337 81bd 1e8d 043d 7f2a 413c 4f8e 353c
00000310: 713f 8a3c 2320 973d 8150 083d e862 e23c
00000320: 8cb8 cf3d 6cd2 89bd ca57 1ebd 3a8b 21bc
00000330: cf1b 8fbd 8bff e6bd 3d23 bebd 9537 583d
00000340: cfca 013d cad2 8f3c 3710 613d 8563 08bd
00000350: 6395 d9bc 3492 49bc a9ea c0bd 5de3 31bd
00000360: 5fe9 473d 067f ac3d 6ee5 8fbc 585d b9bb
00000370: dc42 333d 2135 49bd b15f bcbb a9e8 8c3d
00000380: c092 05bd 3914 a33d b670 ef3c d8d1 3c3d
00000390: e381 0e3d 43d0 bd3b ba0a ca3c d073 07bd
000003a0: 301c 383c 58e6 afbd e19a 97bd 9112 01bd
000003b0: db63 62bd 9700 db3d 19ed 303d eb14 2dbc
000003c0: 53c0 ca3c d6e7 5b3b ba8f f03b ea24 833c
000003d0: ebce 6a3d 7c46 b93b c571 a33c 001d 0abd
000003e0: 8367 80bd aa3b a7bd 066d cc3c b928 fbba
000003f0: 0f5a 35bd b3eb 3bbd bc02 5d3d 0c3c 40bb
-0.067348726 -0.030047797 0.023623649 0.0016383332 0.00030296977 -0.012743023 0.033530723 0.016740533
0.045706045 0.042590205 0.028605985 0.03950599 0.02885329 0.043640386 0.03739568 -0.0374948
-0.024711877 0.013801147 -0.009480529 -0.0012502135 -0.0534797 0.02092377 0.07595522 0.013371117
-0.009231745 0.011791699 0.04213095 -0.05488601 0.050968558 0.07965236 -0.04363753 -0.041736286
0.029117968 0.0647934 -0.0011860074 0.055543747 -0.020412266 -0.019579483 -0.06009753 -0.033530213
-0.05799497 -0.010538448 0.04523241 0.038240254 -0.05614409 0.034283202 -0.0029640116 0.048044857
0.004989773 0.030053193 -0.044798385 -0.028443677 -0.027422428 -0.024362577 0.011886832 0.04778345
-0.0019299113 0.025460063 0.05116658 -0.06460329 -0.026960926 0.027528908 0.045087423 0.002877217
0.032233857 -0.034733392 0.018926796 -0.018859392 0.04698343 0.025472095 -0.040329155 0.040391877
-0.0017439753 0.0057867807 0.052438993 -0.08103483 0.036254562 -0.00709316 0.020546583 0.0035612327
-0.0015660541 -0.05001413 -0.021547 -0.036974117 -0.0009336749 0.056610834 -0.016822997 -0.005683518
-0.008446958 0.003991384 0.016857844 0.02206616 0.002430242 0.04631664 0.048042014 -0.03447873
0.05247884 0.0066599897 0.016627565 0.04588 0.059576374 -0.01709823 0.019814929 -0.02635432
0.012019463 -0.09126799 -0.056131687 0.045688327 -0.067678556 -0.02665036 -0.0264706 0.10491327
0.03486338 -2.1247692e-05 -0.03521515 0.067634314 -0.10825587 0.047017813 -0.100495145 -0.06124271
-0.06637855 0.044245232 0.03986487 0.03472919 0.019046009 0.092455156 -0.09110268 0.027267156
0.032192577 -0.005169739 0.04039942 0.04967536 0.0006813423 -0.041099522 -0.08159466 -0.008576079
0.0013513871 -0.023396425 -0.012107975 -0.005077532 -0.017354183 -0.075147346 -0.01565854 0.095881596
0.017640643 0.029169424 0.0044256556 -0.014505076 -0.033737414 -0.009610602 0.04036474 -0.048622265
0.027952744 0.016414732 0.08904989 0.04332634 -0.006786256 -0.021958584 -0.033160273 -0.08468401
0.022867102 0.013290045 0.025553532 -0.025753263 0.054388028 0.0068960055 0.01802788 0.059192367
-0.00043295493 -0.053276345 -0.08321306 0.01914379 -0.0058257454 -0.008278073 -0.063325495 0.01203954
-0.05584556 0.03486154 0.025106208 0.07083321 -0.045406427 0.025743054 0.025942994 0.053735934
0.08306512 -0.032613266 0.014858435 -0.024049472 0.010494998 -0.028712757 -0.036194414 -0.022386651
-0.063094996 0.032361142 0.011789917 0.011081292 0.016875954 0.073791765 0.0332799 0.027635053
0.101426214 -0.06729588 -0.03865794 -0.009859854 -0.06987726 -0.1127921 -0.09284065 0.052787382
0.031687554 0.017556567 0.054947104 -0.033298034 -0.026560491 -0.012302924 -0.09419758 -0.04342972
0.048806544 0.08422665 -0.017565455 -0.0056568794 0.043764934 -0.049122933 -0.005748712 0.06880314
-0.032610655 0.079628415 0.02922855 0.04609856 0.03479184 0.005792649 0.024663318 -0.03306943
0.011237189 -0.085888565 -0.07402588 -0.031511847 -0.05527101 0.10693472 0.043194864 -0.010564069
0.02474991 0.0033554933 0.0073413523 0.016008813 0.05732624 0.0056541543 0.01995171 -0.033719063
-0.06269743 -0.08165677 0.02495433 -0.0019161917 -0.04427534 -0.045879077 0.053957686 -0.0029332666

fc1.bias f4 [50]
00000000: a1cb 8e3d 92c0 4b3d 7a9a 81bb 304f 9b3c
00000010: f9b8 643d f91a 063b ea29 b83d 6766 c3bb
00000020: 219d 64bd 0a73 633d 22eb 62bc d209 143a
00000030: ec85 643d 992d 273d 54c9 6b3c f732 23bd
00000040: 1db4 603d 45bf 8f3d 2903 17bd 255b fcbc
00000050: 84ae e039 ac41 673c 0ae2 ca3c 5389 273d
00000060: 17a4 a03d e9a6 8e3d 5ce3 973d 6ee9 3abd
00000070: 6b87 103d be97 48bd f70b 4abc 4ea9 543d
00000080: 4bf2 903c 9488 82bb 5aa1 cb3d d73a 4e3c
00000090: 5b5d c1bc 5b48 7a3d c4fb 853d bed2 9f3d
000000a0: 2465 6cbd 4875 853d aa4a 81bc 0ea1 a03c
000000b0: ef48 313d 08d1 48bc fd8f 573d a661 683c
000000c0: ec16 9e3d 84c7 44bc
0.06972433 0.049744196 -0.0039551826 0.018958658 0.055840466 0.0020462854 0.089923695 -0.005963135
-0.055813912 0.05552963 -0.013850005 0.00056472153 0.05579178 0.04081497 0.014391262 -0.039843526
0.05485927 0.07018904 -0.036868248 -0.03080518 0.00042854634 0.0141147785 0.024765987 0.040902447
0.07843798 0.06965429 0.07416412 -0.045632772 0.035285395 -0.048972838 -0.012331954 0.051919274
0.01769366 -0.0039835665 0.09942885 0.012587271 -0.023604086 0.06110416 0.06542161 0.07803868
-0.057713643 0.0651651 -0.015782673 0.019608047 0.043282446 -0.012256868 0.052627552 0.014183437
0.07719216 -0.012010459

fc2.weight f4 [10, 50]
00000000: a4a2 27be 503c 7bbd 001c 2b3e 23de 8d3c
00000010: 9e6e 483d 7b31 2bbe 550a 7a3e be0a 173e
00000020: 7935 38bd b597 813e 801d 19be e6dd 9dbe
00000030: f5da d5bd 2474 a73d 5e78 323e 415b 1fbd
00000040: 48da ec3d fb8e aebd a18c aa3d 8885 4cbd
00000050: e223 50be cd6f 0dbe 67bd 253e 0c6c 123e
00000060: 71a2 9bbe a98e c4bd d588 b8bd 8a42 3ebd
00000070: 0c79 90be 1bfb 913d 7ffc 10be 99b7 49be
00000080: b6e9 3d3e 131b 0abe daba 46be 81e5 81bd
00000090: 7fad 34be 36d7 233e 7635 92be e4de 133e
000000a0: 840b 2dbe 92d9 70be efa8 433e 7383 273e
000000b0: ce71 f33d 94bb 663e 3af9 1fbe 47a8 53bd
000000c0: a207 893e 95d5 abbd 4317 623e fed9 483e
000000d0: fd56 1abe aac7 4e3e bed2 0bbe 7aa0 6ebe
000000e0: 6e4c 293e 4b63 2bbe 5a32 e8bd 7563 6cbe
000000f0: 57da 57be a4ee f5bd c6f0 fc3d c11b ab3d
00000100: f42d 6dbd 9712 893c 4084 a0bd 9b87 6c3e
00000110: 9a78 d3bc d32a 023e a7d7 46be c584 adbd
00000120: 536a 98bd 76de 83be 8bba 1f3e 60b5 453e
00000130: b2ab 8e3e 65a2 90bd faed 0abe 10a5 36be
00000140: bcff 393e 1f13 3b3e 33de 5cbd 864b 12be
00000150: 7665 373e fe7e 0bbe bc33 083e 3d6e 3abe
00000160: 103e 053e 9d8a 63be 333a 433d 1885 4f3e
00000170: 2ee0 83bd 6a5f 86be 3e05 d5bd 4213 0fbd
00000180: 2fb0 49be 729b 753e 7172 a5bc fa12 d7bc
00000190: 2bb7 5b3e 250e 19be fb7c 123e e8e3 5ebd
000001a0: 3e0f 8dbc 4234 36be 4342 133e 53fe 3bbe
000001b0: 300a 7a3e c17d 643b 9e9e e43d 89c8 3bbe
000001c0: 22c8 303e 7350 383c 5a94 e93d 3680 10be
000001d0: c664 be3a 6014 363e 2cd5 0e3d ad34 03be
000001e0: cab3 f13d 35c8 ebbd 72d5 23be 3280 923d
000001f0: bcbf 61be 2707 14be 95c2 953e 0804 273e
00000200: cf57 04ba f61b 193e 0790 2f3e c5c1 49be
00000210: 79e3 1c3d 3118 4cbd 1edb 393e 37dd 2c3e
00000220: cb3d 49be f9f5 41be c86b 6dbe a4ee 38be
00000230: cfa0 fdbd 5d8e 1bbb c195 023e cbe2 b3bc
00000240: a094 173e 1920 e0bc 2908 03be 5d11 213e
00000250: 9e1c 613e cf9f 803e 91ad 8c3b 79c1 fa3c
00000260: 54e9 1d3e a48c 45be cc00 ccbd 4f6d bebd
00000270: 9631 07be e6ed 1cbd f918 953c 2bef 18be
00000280: 509c 2b3e 473e eebc 2561 373e b5b3 fc3c
00000290: 0b72 0dbe cf53 eabd c78c 083e b3ca 9cbc
000002a0: f332 f63d 0493 203e ee2b 9a3d 3e5a b2bc
000002b0: b6f6 6ebe 4a8a 423e 2bf2 3abe f6bf 80be
000002c0: 1313 cabd 548b 1c3e 92aa 2a3e 624a fc3d
000002d0: dd05 0f3e 9d18 52be 142d 493e 582b 8a3b
000002e0: 53a5 2dbe 1acc 8abd a9b7 253e 16ac 35be
000002f0: 4459 253e ddbb 3cbe 5ae2 543e 07b0 3e3e
00000300: 190c 14be bd9b 283e c730 05be 325c d0bc
00000310: 9336 0ebe d73f 073c 6892 d4bd be72 253e
00000320: acca 36be 25e0 513e 0dce 0b3e 4cad 7b3e
00000330: eca7 6abd 5e80 673e 61b3 37be 8d27 36be
00000340: 0467 a8bd 5add 25be 0122 23be 7607 203e
00000350: 9b67 ba3d 2252 75be 436d 263d cd4a 7ebd
00000360: 728b 29be 3663 4cbe 52d5 e7bd a46b f6bd
00000370: 458c 943d 88f8 edbd 59c0 34be 4336 9abe
00000380: 5d0c 133e 7b68 363e 0362 023c d332 1b3e
00000390: 1210 cfbd f057 4fbe 8cf0 22be 51d1 5c3e
000003a0: a45b 51be c4d6 833e 9f60 41be f548 823e
000003b0: aefc 343a 1447 123e a8f3 6c3d d70f afbd
000003c0: 2c6e e8bd 4383 09be 5fe0 973b 3c1c 4b3e
000003d0: f77d 233e ff5b cdbd a491 863e 3acd 423e
000003e0: c3f7 2dbd 25e3 16be 5823 f93c dd43 78bd
000003f0: ba25 65be 923d 21bc 9f93 4b3e 8314 6a3e
-0.16370636 -0.061336815 0.167099 0.017317837 0.048933618 -0.16718094 0.24418004 0.14750192
-0.04497287 0.25311056 -0.1495266 -0.30833358 -0.10442153 0.08176449 0.17428729 -0.038905386
0.11565071 -0.08523365 0.08327604 -0.049932033 -0.20326188 -0.1381218 0.16185533 0.14299029
-0.3039737 -0.09597523 -0.09010474 -0.046450175 -0.2821735 0.07127973 -0.1415882 -0.19698943
0.18546185 -0.1348689 -0.19407216 -0.063426025 -0.17644309 0.16000065 -0.28556412 0.14440495
-0.16898924 -0.23520496 0.19107412 0.16358738 0.11886941 0.22532493 -0.15622416 -0.051674154
0.26763636 -0.08390347 0.22079186 0.19614407 -0.15072246 0.20193353 -0.1365461 -0.23303404
0.16533062 -0.16737096 -0.11337729 -0.23084815 -0.21079384 -0.12008408 0.123506114 0.08354903
-0.057905152 0.016732497 -0.07837725 0.23098604 -0.025814343 0.12711649 -0.19418202 -0.084725894
-0.07442155 -0.25755662 0.15598504 0.1930747 0.27865368 -0.07062224 -0.13567343 -0.17836404
0.18163961 0.18269013 -0.053922843 -0.14286622 0.17909798 -0.13622662 0.13300985 -0.18206115
0.13011956 -0.22220846 0.047662925 0.20265615 -0.06439243 -0.2624467 -0.104013905 -0.034930475
-0.19696115 0.23985079 -0.020196171 -0.026254166 0.21456592 -0.14946802 0.14305489 -0.054416567
-0.017219182 -0.17793372 0.14380746 -0.18358736 0.24417949 0.0034864994 0.11163066 -0.18338217
0.17263845 0.011249649 0.11405249 -0.14111409 0.0014525882 0.1778121 0.034871265 -0.12813063
0.1180187 -0.11512796 -0.15999392 0.071533576 -0.22045797 -0.14455853 0.29250017 0.16310132
-0.0005048485 0.14952073 0.17144786 -0.19702823 0.038302872 -0.04982776 0.18149993 0.16881262
-0.19652478 -0.18941487 -0.23185647 -0.18059784 -0.123841874 -0.0023735978 0.12752439 -0.02195873
0.1480279 -0.027359055 -0.12796082 0.1572928 0.21983573 0.25121924 0.0042931517 0.030609833
0.15421039 -0.19291931 -0.099610895 -0.09298193 -0.1320251 -0.038312815 0.018200384 -0.14934985
0.16758847 -0.02908243 0.17908151 0.03084741 -0.13813035 -0.114417665 0.13334952 -0.019139623
0.120214365 0.15681082 0.0752791 -0.021771546 -0.233363 0.18998066 -0.18256442 -0.25146455
-0.09866919 0.15287524 0.1666663 0.12318875 0.1396708 -0.20517202 0.19646102 0.0042165928
-0.16957597 -0.067772105 0.16183342 -0.17741427 0.16147333 -0.18431039 0.20789471 0.18621837
-0.1445774 0.1646566 -0.13006888 -0.025434587 -0.13888006 0.008254967 -0.10379487 0.16157052
-0.1785075 0.2049566 0.13652821 0.24577826 -0.05728905 0.22607562 -0.17939521 -0.17788525
-0.08222774 -0.1619772 -0.1593094 0.15627846 0.091017924 -0.23957112 0.040631544 -0.062083054
-0.165571 -0.19959721 -0.113199845 -0.120322496 0.07253317 -0.11619669 -0.176515 -0.30119523
0.14360185 0.17813294 0.007957938 0.15156107 -0.10110487 -0.20248389 -0.15912074 0.21564223
-0.20445114 0.2574979 -0.18884514 0.25446287 0.0006904107 0.14284927 0.057849556 -0.08547943
-0.113491386 -0.13428979 0.0046349014 0.1983499 0.1596602 -0.100273125 0.2628299 0.190236
-0.042472612 -0.14735086 0.030412361 -0.060611594 -0.22377673 -0.00984134 0.19880532 0.22859387

fc2.bias f4 [10]
00000000: 2bc0 313b be00 b43e ba5d 2cbe 89af b4bc
00000010: 7738 9d3c daf6 233c e7d6 4c3c e5ec bdbb
00000020: 181e 123e 3fca 643c
0.0027122598 0.35156816 -0.16832629 -0.022056358 0.019191964 0.0100075845 0.012502409 -0.0057960623
0.14269292 0.013964235
